models/sine_net.pth (torch, 7250 bytes, 5 tensors)

fc1.weight f4 [32, 1]
-0.09522655 -0.3048306 -0.09522654 0.30483058 0.30483058 -0.3048306 0.3048306 -0.3048306
0.09522655 -0.6338686 0.3048306 -0.3048306 0.3048306 -0.30483058 -0.6338798 -0.3048306
-0.63386625 0.63387895 0.63387305 0.095226556 -0.30483058 0.30483058 -0.3048306 -0.3048306
-0.30483064 -0.6338685 -0.3048306 -0.63387054 -0.3048306 0.09522654 -0.6338729 -0.3048306
00000000: 2306 c3bd c212 9cbe 2206 c3bd c112 9c3e
00000010: c112 9c3e c212 9cbe c212 9c3e c212 9cbe
00000020: 2306 c33d 3645 22bf c212 9c3e c212 9cbe
00000030: c212 9c3e c112 9cbe f245 22bf c212 9cbe
00000040: 0f45 22bf e445 223f 8145 223f 2406 c33d
00000050: c112 9cbe c112 9c3e c212 9cbe c212 9cbe
00000060: c312 9cbe 3545 22bf c212 9cbe 5745 22bf
00000070: c212 9cbe 2206 c33d 7f45 22bf c212 9cbe

fc1.bias f4 [32]
-0.0049074157 -0.0026311006 -0.004907456 0.0026310743 0.002631115 -0.002631059 0.002631077 -0.0026311208
0.0049074832 -0.0021579699 0.0026309944 -0.0026310629 0.0026311018 -0.002631032 -0.0021588798 -0.0026311302
-0.0021577699 0.002158814 0.0021583166 0.004907397 -0.0026311134 0.002631106 -0.0026311215 -0.002631123
-0.0026307644 -0.002157946 -0.0026311062 -0.0021581084 -0.0026311318 0.00490736 -0.0021583296 -0.0026310931
00000000: 63ce a0bb 8b6e 2cbb bace a0bb 1a6e 2c3b
00000010: c96e 2c3b d86d 2cbb 266e 2c3b e26e 2cbb
00000020: f4ce a03b ba6c 0dbb c36c 2c3b e96d 2cbb
00000030: 906e 2c3b 646d 2cbb fe7b 0dbb 0a6f 2cbb
00000040: 5f69 0dbb e47a 0d3b 8b72 0d3b 3bce a03b
00000050: c26e 2cbb a26e 2c3b e56e 2cbb eb6e 2cbb
00000060: e768 2cbb 536c 0dbb a36e 2cbb 0d6f 0dbb
00000070: 116f 2cbb ebcd a03b c372 0dbb 6b6e 2cbb

fc2.weight f4 [32, 32]
-0.004062528 0.001900092 -0.0040625464 -0.0019001026 -0.0019000917 0.0019000961 -0.0019000921 0.0019000958
0.0040625455 -0.0027952571 -0.0019000974 0.0019000937 -0.0019001004 0.0019001005 -0.0027953996 0.0019000947
-0.0027952217 0.0027953985 0.002795333 0.004062533 0.0019000942 -0.0019000937 0.001900094 0.0019001024
0.0019000957 -0.0027952718 0.0019000984 -0.00279528 0.0019000962 0.004062544 -0.002795312 0.0019000932
0.12673403 -0.062033996 0.12673402 0.062034007 0.062033977 -0.062033992 0.062033996 -0.062033985
-0.12673399 0.08872117 0.062034022 -0.062034003 0.062033985 -0.062034007 0.08872943 -0.062034
0.088719316 -0.08872888 -0.08872444 -0.12673399 -0.06203398 0.062033992 -0.062034 -0.062033977
-0.06203403 0.08872113 -0.062033992 0.088722624 -0.062033985 -0.126734 0.08872439 -0.06203398
-0.057109196 0.027458036 -0.05710919 -0.02745804 -0.027458033 0.027458042 -0.02745803 0.027458038
0.057109177 -0.039392184 -0.027458034 0.027458036 -0.027458046 0.027458033 -0.039394595 0.027458036
-0.03939166 0.03939443 0.039393134 0.05710919 0.027458038 -0.027458036 0.027458042 0.027458042
0.02745804 -0.0393922 0.02745803 -0.039392624 0.027458044 0.05710919 -0.039393123 0.027458029
0.091752365 -0.044404723 0.09175237 0.04440476 0.044404738 -0.044404753 0.044404745 -0.04440474
-0.09175236 0.06350698 0.044404756 -0.044404745 0.04440476 -0.04440475 0.063511685 -0.044404753
0.063505985 -0.06351134 -0.06350889 -0.09175237 -0.04440474 0.044404738 -0.044404745 -0.04440473
-0.044404745 0.06350696 -0.04440474 0.06350787 -0.044404738 -0.091752365 0.06350883 -0.044404753
0.051155593 -0.02457336 0.05115559 0.024573362 0.024573348 -0.024573354 0.024573356 -0.024573362
-0.051155593 0.035296258 0.02457336 -0.024573352 0.024573354 -0.02457336 0.035298415 -0.024573352
0.035295833 -0.03529826 -0.035297118 -0.051155604 -0.024573365 0.024573354 -0.024573362 -0.024573354
-0.024573352 0.035296243 -0.024573354 0.03529663 -0.024573362 -0.05115561 0.035297107 -0.02457335
-0.07691419 0.037102807 -0.07691419 -0.037102826 -0.03710281 0.03710282 -0.037102815 0.0371028
0.0769142 -0.05310391 -0.03710282 0.037102822 -0.037102807 0.03710283 -0.053107567 0.037102815
-0.053103156 0.053107325 0.053105358 0.0769142 0.037102815 -0.03710281 0.037102804 0.03710283
0.037102807 -0.053103875 0.03710282 -0.05310455 0.037102804 0.076914206 -0.053105347 0.037102807
0.12692165 -0.062130295 0.12692162 0.062130313 0.062130295 -0.062130302 0.062130295 -0.062130287
-0.12692164 0.088861205 0.062130287 -0.062130276 0.06213028 -0.06213028 0.0888696 -0.062130295
0.08885939 -0.08886899 -0.08886456 -0.12692162 -0.062130295 0.062130302 -0.062130284 -0.062130295
-0.062130284 0.088861145 -0.062130295 0.08886268 -0.06213029 -0.12692164 0.0888645 -0.06213028
-0.14672887 0.07255625 -0.14672887 -0.07255635 -0.07255626 0.0725563 -0.072556265 0.07255627
0.1467289 -0.10387026 -0.07255631 0.07255629 -0.07255628 0.07255637 -0.10388196 0.07255627
-0.103867784 0.10388103 0.10387486 0.1467289 0.07255631 -0.07255627 0.07255628 0.07255629
0.07255632 -0.103870176 0.072556265 -0.10387225 0.07255627 0.1467289 -0.103874825 0.07255627
00000000: f41e 85bb 820c f93a 1c1f 85bb dd0c f9ba
00000010: 7f0c f9ba a50c f93a 830c f9ba a30c f93a
00000020: 1a1f 853b a230 37bb b00c f9ba 910c f93a
00000030: ca0c f9ba cb0c f93a 0633 37bb 990c f93a
00000040: 0a30 37bb 0133 373b e831 373b ff1e 853b
00000050: 950c f93a 910c f9ba 930c f93a db0c f93a
00000060: a20c f93a e130 37bb b90c f93a 0431 37bb
00000070: a60c f93a 171f 853b 8e31 37bb 8c0c f93a
00000080: 91c6 013e 5c17 7ebd 90c6 013e 5f17 7e3d
00000090: 5717 7e3d 5b17 7ebd 5c17 7e3d 5917 7ebd
000000a0: 8ec6 01be 72b3 b53d 6317 7e3d 5e17 7ebd
000000b0: 5917 7e3d 5f17 7ebd c7b7 b53d 5d17 7ebd
000000c0: 79b2 b53d 7db7 b5bd 29b5 b5bd 8ec6 01be
000000d0: 5817 7ebd 5b17 7e3d 5d17 7ebd 5717 7ebd
000000e0: 6517 7ebd 6cb3 b53d 5b17 7ebd 35b4 b53d
000000f0: 5917 7ebd 8fc6 01be 22b5 b53d 5817 7ebd
00000100: 55eb 69bd adef e03c 53eb 69bd afef e0bc
00000110: abef e0bc b0ef e03c aaef e0bc aeef e03c
00000120: 50eb 693d b359 21bd acef e0bc adef e03c
00000130: b2ef e0bc abef e03c 3a5c 21bd adef e03c
00000140: 2659 21bd 0e5c 213d b25a 213d 53eb 693d
00000150: aeef e03c adef e0bc b0ef e03c b0ef e03c
00000160: afef e03c b759 21bd aaef e03c 295a 21bd
00000170: b1ef e03c 53eb 693d af5a 21bd a9ef e03c
00000180: aae8 bb3d bae1 35bd abe8 bb3d c4e1 353d
00000190: bee1 353d c2e1 35bd c0e1 353d bfe1 35bd
000001a0: a9e8 bbbd f30f 823d c3e1 353d c0e1 35bd
000001b0: c4e1 353d c1e1 35bd 6a12 823d c2e1 35bd
000001c0: 6d0f 823d 3c12 82bd f310 82bd abe8 bbbd
000001d0: bfe1 35bd bee1 353d c0e1 35bd bce1 35bd
000001e0: c0e1 35bd f00f 823d bfe1 35bd 6a10 823d
000001f0: bee1 35bd aae8 bbbd eb10 823d c2e1 35bd
00000200: 8788 513d 124e c9bc 8688 513d 134e c93c
00000210: 0c4e c93c 0f4e c9bc 104e c93c 134e c9bc
00000220: 8788 51bd cf92 103d 124e c93c 0e4e c9bc
00000230: 0f4e c93c 124e c9bc 1295 103d 0e4e c9bc
00000240: 5d92 103d e994 10bd b693 10bd 8a88 51bd
00000250: 154e c9bc 0f4e c93c 134e c9bc 0f4e c9bc
00000260: 0e4e c9bc cb92 103d 0f4e c9bc 3393 103d
00000270: 134e c9bc 8b88 51bd b393 103d 0d4e c9bc
00000280: 3085 9dbd 1df9 173d 3085 9dbd 22f9 17bd
00000290: 1ef9 17bd 20f9 173d 1ff9 17bd 1bf9 173d
000002a0: 3185 9d3d 7c83 59bd 20f9 17bd 21f9 173d
000002b0: 1df9 17bd 23f9 173d 5287 59bd 1ff9 173d
000002c0: b282 59bd 1187 593d 0185 593d 3185 9d3d
000002d0: 1ff9 173d 1ef9 17bd 1cf9 173d 23f9 173d
000002e0: 1df9 173d 7383 59bd 20f9 173d 2884 59bd
000002f0: 1cf9 173d 3285 9d3d fe84 59bd 1df9 173d
00000300: c0f7 013e 567c 7ebd bef7 013e 5b7c 7e3d
00000310: 567c 7e3d 587c 7ebd 567c 7e3d 547c 7ebd
00000320: bff7 01be ddfc b53d 547c 7e3d 517c 7ebd
00000330: 527c 7e3d 527c 7ebd 4401 b63d 567c 7ebd
00000340: e9fb b53d f200 b6bd 9ffe b5bd bef7 01be
00000350: 567c 7ebd 587c 7e3d 537c 7ebd 567c 7ebd
00000360: 537c 7ebd d5fc b53d 567c 7ebd a3fd b53d
00000370: 557c 7ebd bff7 01be 97fe b53d 527c 7ebd
00000380: 1840 16be 5f98 943d 1840 16be 6c98 94bd
00000390: 6098 94bd 6698 943d 6198 94bd 6298 943d
000003a0: 1a40 163e eeb9 d4bd 6798 94bd 6498 943d
000003b0: 6398 94bd 6f98 943d 11c0 d4bd 6298 943d
000003c0: a2b8 d4bd 94bf d43d 58bc d43d 1a40 163e
000003d0: 6798 943d 6298 94bd 6398 943d 6498 943d
000003e0: 6898 943d e3b9 d4bd 6198 943d f9ba d4bd
000003f0: 6298 943d 1a40 163e 53bc d4bd 6298 943d

fc2.bias f4 [32]
-6.593742e-05 0.0012465327 -0.0008208335 0.0011292135 0.0007512619 -0.0010195556 0.0012459136 -0.0012202641
-0.0008359317 -0.00084943866 0.0011100064 -0.0008102763 -0.00123048 0.0009507686 -0.00066635356 -0.0011578137
-0.0012422019 -0.0010507862 0.0009502669 3.830983e-23 -0.0012307417 -0.0012038079 0.001225361 -0.0010409413
0.001088004 -0.0012457274 -0.0011605466 -0.0007853193 0.0012330144 -0.001161478 -0.00089338596 -0.0012236446
00000000: e247 8ab8 b262 a33a 342d 57ba 1e02 943a
00000010: 55f0 443a 9ca2 85ba ec4d a33a 45f1 9fba
00000020: 6d22 5bba ddac 5eba a27d 913a b968 54ba
00000030: 0f48 a1ba 003d 793a 3bae 2eba c8c1 97ba
00000040: 61d1 a2ba 89ba 89ba 551b 793a 4641 391a
00000050: d750 a1ba 17c9 9dba 4b9c a03a 3270 88ba
00000060: 5b9b 8e3a ad47 a3ba 7b1d 98ba e3dd 4dba
00000070: 199d a13a bc3c 98ba 1e32 6aba b362 a0ba

fc3.weight f4 [1, 32]
0.014832825 -0.4649926 0.20787549 -0.33438587 -0.18630983 0.27982268 -0.46582165 0.5420555
0.2127465 0.21719988 -0.32420152 0.20445156 0.42324823 -0.25301427 0.16054513 0.35347107
0.5023819 0.2943634 -0.2527909 -2.4430852e-21 0.4242356 0.5602761 -0.535325 0.2895505
-0.3121202 0.46500236 0.35546175 0.19650055 -0.42800578 0.3560229 0.23189329 0.53764033
00000000: 6105 733c 8313 eebe 50dd 543e a034 abbe
00000010: 01c8 3ebe eb44 8f3e 2d80 eebe 26c4 0a3f
00000020: 38da 593e a569 5e3e befd a5be c05b 513e
00000030: feb3 d83e 168b 81be f165 243e 29fa b43e
00000040: 1a9c 003f cdb6 963e cf6d 81be 2498 389d
00000050: 6935 d93e 416e 0f3f 0f0b 09bf f73f 943e
00000060: 38ce 9fbe ca14 ee3e 15ff b53e 7137 493e
00000070: 9323 dbbe a248 b63e 6f75 6d3e cca2 093f
